files/suggester.onnx (onnx, 840987 bytes, 30 tensors)

embeds.0.weight f4 [200, 31]
0	0x3b8e6798	0.0043458454
1	0xbc020bb6	-0.007937362
2	0x3c50cb29	0.01274375
3	0xb9f598b1	-0.00046843805
4	0xbbefd7d0	-0.007319428
5	0xbc5a32c4	-0.0133177675
6	0x3b5d1776	0.0033735908
7	0x3ba82e25	0.005132454
8	0xbbc0c48d	-0.0058828057
9	0x3bdd412a	0.006752153
10	0xbc6e4c1b	-0.014544512
11	0x3ae805f8	0.0017701974
12	0xb9e5246c	-0.0004370542
13	0x3c5e44eb	0.013566236
14	0x3c3a24c8	0.011361308
15	0xbb5c19bc	-0.0033584675
16	0xbc605f94	-0.013694663
17	0x3a831f9d	0.0010003928
18	0xbc2c6d9b	-0.010524179
19	0xbc131dbf	-0.00897926
20	0x3bf72922	0.007542745
21	0x3b9f57ae	0.004862747
22	0x3b9beba2	0.004758314
23	0xbc16dc2f	-0.009207769
24	0x3b996a81	0.0046818857
25	0xbc2c9c7b	-0.010535355
26	0xbc641ce7	-0.0139229065
27	0x3b86a115	0.004108558
28	0x3b4a472c	0.0030865176
29	0x3c3f8a27	0.011690653
30	0xbbdac2d0	-0.0066760555
31	0x3c548e71	0.012973414
32	0xbd3b2ba2	-0.04569591
33	0x3ca6548d	0.020303989
34	0xbd720cc8	-0.05909422
35	0xbc202466	-0.009774303
36	0xbd4154da	-0.04720006
37	0x3d506d37	0.050885405
38	0xbc37d405	-0.011219983
39	0xbccaaaec	-0.024739705
40	0xbd3ec18b	-0.046571296
41	0x3c66c945	0.014086072
42	0xbd617512	-0.055043288
43	0xbcd266a0	-0.025683701
44	0xbcaeef8e	-0.021354463
45	0xbd4fc198	-0.050721735
46	0x3be6c1cd	0.007042146
47	0x3ca89262	0.020577613
48	0xbc915966	-0.017742824
49	0xbd80851a	-0.06275387
50	0x3d503e95	0.050840933
51	0x3cf8fef2	0.030395005
52	0xbc9b6b4b	-0.01897206
53	0x3c9c2b44	0.0190636
54	0xbc244d8a	-0.010028252
55	0xbb9369f2	-0.0044987136
56	0xba349a2a	-0.00068894273
57	0xbbe3ba65	-0.00694971
58	0x3c60f113	0.013729352
59	0xbd678663	-0.056524646
60	0x3d9c99e4	0.0764654
61	0x3d695b8b	0.056972068
62	0xbbbb117b	-0.005708871
63	0x3c49701b	0.012294794
64	0x3d206c6f	0.03916591
65	0x3b9b6431	0.0047421684
66	0x3c810660	0.01575011
67	0x3bc71fc6	0.0060767857
68	0x3d0f6b93	0.0350147
69	0xbd43b1d7	-0.047777023
70	0xbc322943	-0.010874095
71	0xbcfaf984	-0.030636556
72	0x3d712591	0.058873717
73	0x39b9056b	0.00035289986
74	0xbc828f60	-0.015937507
75	0xbd0d2c91	-0.03446633
76	0xbc10bd83	-0.008834246
77	0x3cf99f73	0.03047154
78	0x3d0139c1	0.03154922
79	0xbc9a8306	-0.018861305
80	0xbd40600a	-0.04696659
81	0x3d0d651a	0.034520246
82	0x3d9448b2	0.07240428
83	0x3c734504	0.014847998
84	0xbd759a2e	-0.05996149
85	0xbdb722a0	-0.08942151
86	0x3d03a1d5	0.032136757
87	0x3d811db5	0.06304494
88	0xbc2329d1	-0.0099587
89	0x3b28b226	0.002574095
90	0x3c320c3e	0.010867177
91	0x3d8a4a8a	0.067524984
92	0xbb8582b9	-0.0040744212
93	0x3ca7d906	0.020489227
94	0x3c62041b	0.013794924
95	0x3cc57819	0.024105119
96	0xbcce3229	-0.025170403
97	0x3d1d6b56	0.03843244
98	0xbda42152	-0.08014168
99	0xbdd6b9d1	-0.104846604
100	0xbd054d81	-0.032544617
101	0x3d91ea34	0.07124749
102	0xbd120991	-0.035653654
103	0xbd0d6734	-0.03452225
104	0x3c8f0aa8	0.017461136
105	0x3d0cb8e6	0.03435602
106	0xbd71a615	-0.05899628
107	0x3be73152	0.00705544
108	0xbd49d823	-0.04927839
109	0x3d989e91	0.07452119
110	0xbd898abd	-0.06715915
111	0x3c84e50f	0.016222505
112	0xbbec67a8	-0.007214505
113	0xbc6ba88e	-0.014383448
114	0x3d096f01	0.033553127
115	0xbdc3c7ed	-0.09559617
116	0x3d13786b	0.03600351
117	0xbca9ee12	-0.020743404
118	0x3d16ae59	0.036787365
119	0xbc26f80c	-0.010190975
120	0xbd5ecd31	-0.054394905
121	0xbbb383b1	-0.0054783453
122	0xbad4f916	-0.001624855
123	0x3d83b4ce	0.0643097
124	0xbd252091	-0.04031426
125	0xbdada833	-0.08479347
126	0xbcd18172	-0.02557442
127	0xbbf538a3	-0.0074835583
128	0x3d898f1a	0.067167476
129	0xbdcb8f80	-0.0993948
130	0xbd37b9af	-0.044854816
131	0x3d436992	0.0477081
132	0xbcc16f8c	-0.02361276
133	0x3d225e17	0.039640512
134	0x3d7d0479	0.061771844
135	0x3d73930a	0.0594664
136	0x3cf6d0ea	0.030128915
137	0x3caab8cd	0.020840073
138	0x3d3a1895	0.0454336
139	0x3b0d07bc	0.0021519503
140	0x3cab6e65	0.020926664
141	0x3d3442c6	0.044008993
142	0x3b765e02	0.0037592654
143	0xbd7f577e	-0.0623393
144	0x3c556351	0.013024167
145	0xbd9ae0f0	-0.07562435
146	0x3c03a3d5	0.008034666
147	0x3c5fd893	0.013662475
148	0x3ac8640b	0.0015288604
149	0xbd199522	-0.03749574
150	0xbda9c4ab	-0.082894646
151	0xbd7b5513	-0.06136043
152	0xbb31666d	-0.0027069107
153	0x3d642c24	0.05570616
154	0x3d20e90d	0.039284755
155	0xbd05aadf	-0.03263366
156	0xbd781957	-0.06057104
157	0xbba40165	-0.005005049
158	0xbaa95acd	-0.0012920737
159	0x3d4c436e	0.049868993
160	0xbd83ced2	-0.06435932
161	0xbd040d65	-0.032239337
162	0x3c3e120b	0.0116009815
163	0xbcf205d2	-0.029543791
164	0x3bfa368a	0.007635896
165	0x3da4cfb2	0.08047427
166	0x3d3f1dcf	0.046659287
167	0x3d6d84ac	0.057987854
168	0x3d190085	0.03735401
169	0x3d2c58bd	0.042076815
170	0xbaaaa141	-0.0013018028
171	0xbd351c94	-0.044216707
172	0x3d31bdd6	0.043393932
173	0x3c5012fc	0.012699839
174	0xbd5cb683	-0.053884994
175	0xbb7adfb4	-0.003828031
176	0xbd37d793	-0.044883322
177	0x3adcb554	0.0016838708
178	0x3bb752de	0.0055945953
179	0x3cbb195c	0.02283924
180	0xbd0c5f6c	-0.03427069
181	0xbd9060f2	-0.07049741
182	0xbd9274fd	-0.0715122
183	0xb9e6c62f	-0.00044016677
184	0x3db4da4b	0.088306986
185	0x3cef7794	0.029231824
186	0xbd51d560	-0.05122888
187	0xbd94066d	-0.07227788
188	0xbbdcfc82	-0.0067439685
189	0x3b388e41	0.0028160962
190	0x3d9db409	0.077003546
191	0xbd4b92d8	-0.049700588
192	0xbd3a7e61	-0.04553068
193	0x3c685659	0.014180743
194	0xbcd68be2	-0.026189748
195	0x3c6a72f2	0.014309632
196	0x3d77534c	0.060382172
197	0x3d84dd95	0.06487576
198	0x3d0b2831	0.033973876
199	0x3cc1833a	0.023622144
200	0x3d5dd159	0.054154728
201	0x39a348d8	0.00031144056
202	0xbc77754c	-0.015103649
203	0x3ca0c46c	0.019624911
204	0x3cfb1bdc	0.030652933
205	0xbdb8f296	-0.090306446
206	0xbc97359c	-0.01845818
207	0xbd9f6f14	-0.07784858
208	0xbc91b080	-0.017784357
209	0x3ba80ac0	0.0051282346
210	0xbc941631	-0.018076988
211	0xba8b5e66	-0.0010632991
212	0xbd87bd9b	-0.06627961
213	0xbdb50e94	-0.08840671
214	0xbb16ec71	-0.0023029114
215	0x3d978096	0.07397573
216	0x3be7031f	0.0070499326
217	0xbdb68584	-0.08912185
218	0xbdb6dac2	-0.089284435
219	0xbcd69d97	-0.026198192
220	0x3c0b9ef0	0.00852178
221	0x3d432371	0.04764122
222	0xbd3826d6	-0.04495891
223	0xbba56bac	-0.005048236
224	0x3be1e00d	0.006893164
225	0xbcff5dd9	-0.03117268
226	0x3ca8b9d3	0.02059642
227	0x3d98b0b9	0.07455582
228	0x3bf14640	0.007363111
229	0x3da32cb8	0.07967514
230	0x3bfcc5cf	0.0077140103
231	0x3c203b68	0.009779789
232	0xbd786fac	-0.060653374
233	0x3cb8b7f4	0.022548653
234	0x3bd9cbc2	0.0066466043
235	0x3cbb9887	0.02289988
236	0xbd8ed6f6	-0.06974594
237	0xbd1bccd6	-0.038037144
238	0xbd5f7609	-0.054555926
239	0x3b0e4734	0.002170992
240	0xbcd5c68c	-0.026095651
241	0xbc386863	-0.0112553565
242	0x3c80704a	0.015678544
243	0xbd069095	-0.032852728
244	0xbd925797	-0.07145613
245	0x3bf1fb5e	0.0073847016
246	0x3dd8bc48	0.10582787
247	0x3d6609bb	0.056161623
248	0xbd01c2a4	-0.031679764
249	0xbd945d97	-0.07244413
250	0xbca8d7ef	-0.020610778
251	0x3a9e6b39	0.0012086398
252	0x3d7a7b6e	0.061152868
253	0xbd99c0c6	-0.07507472
254	0xbd06c97b	-0.03290699
255	0x3cd5556b	0.026041707

embeds.1.weight f4 [3, 3]
0	0xbbc3078d	-0.005951828
1	0xbc1466d4	-0.009057719
2	0x3c6f9d07	0.014624841
3	0x3d7833fa	0.060596444
4	0xbdb6cf5a	-0.08926268
5	0xbd84051e	-0.064462885
6	0xbdb02de2	-0.086025015
7	0x3e226339	0.15858163
8	0x3e032782	0.1280804

embeds.2.weight f4 [8, 5]
0	0xbbff90fe	-0.007799267
1	0xbb2eae75	-0.0026654277
2	0xbb886c96	-0.004163335
3	0xbb2ce43f	-0.0026381162
4	0xbbb30ebd	-0.0054644034
5	0x3c4b621a	0.012413526
6	0xbc86a87e	-0.016437765
7	0xbc3e851c	-0.011628415
8	0xbb7d3009	-0.0038633368
9	0xbc3cbcf1	-0.0115196565
10	0x3d93426a	0.07190402
11	0x3ba8aa6d	0.0051472695
12	0x3d94ad07	0.07259565
13	0x3d0453d6	0.032306515
14	0x3d81cad9	0.06337518
15	0x3c3daead	0.0115772905
16	0xbbb0bd2d	-0.0053936453
17	0x3c5311b5	0.01288264
18	0xbc3c6c05	-0.011500363
19	0x3ccf2d54	0.025290169
20	0x3cf2b883	0.029628998
21	0xbd2d9c97	-0.042385664
22	0xbd461012	-0.04835517
23	0xbdb33c63	-0.08751752
24	0x3d20a39f	0.03921854
25	0x3d6e2a7e	0.058145992
26	0x3d3f5d28	0.0467197
27	0xbce69f14	-0.028152026
28	0x3b9284d5	0.004471401
29	0x3c92656e	0.017870631
30	0xbd0cc91e	-0.034371488
31	0x3d1a79ab	0.037713688
32	0x3d8cbf8f	0.068724744
33	0x3c0a84c2	0.0084545035
34	0x3daa2809	0.08308417
35	0xbd76a1b0	-0.06021279
36	0xbcb73bc9	-0.022367375
37	0xbcb4bb3c	-0.022061937
38	0x3ce34ce3	0.027746623
39	0xbd0a1f98	-0.033721536

embeds.3.weight f4 [10, 6]
0	0xbaa50d7c	-0.001259252
1	0x3b890f18	0.0041827075
2	0x3c1bb048	0.009502478
3	0xbc73c7d4	-0.014879186
4	0x3c41fa4d	0.0118394615
5	0xbb903c86	-0.004401746
6	0xbd0767b4	-0.033057883
7	0xbcbc092c	-0.022953592
8	0xbd359a14	-0.044336393
9	0x3c91f964	0.017819114
10	0xbcf1d177	-0.029518826
11	0xbc873b41	-0.016507747
12	0x3c203ff3	0.009780872
13	0x3dbd307a	0.09237762
14	0x3c5461bd	0.012962756
15	0x3d4afa82	0.04955531
16	0xbd2a36e4	-0.041556254
17	0x3d6a33d6	0.05717834
18	0x3b27c9ab	0.0025602381
19	0x3d9f92c3	0.077916645
20	0x3d08793e	0.03331875
21	0x3d6d96be	0.058005087
22	0x3df95e03	0.121761344
23	0xbdd3d1bf	-0.1034274
24	0x3d83633b	0.06415411
25	0xbca4808c	-0.020080827
26	0x3c5b8883	0.013399246
27	0x3d226aa3	0.039652478
28	0x3d66d8d2	0.05635912
29	0x3e3f23e5	0.18666036
30	0x3e06f5bf	0.13179682
31	0xbd7c1966	-0.06154766
32	0xbbbae0a1	-0.0057030474
33	0xbd2fc6b9	-0.042914126
34	0xbd9ff4ef	-0.07810389
35	0xbb66ed85	-0.0035236788
36	0xbe14c7b6	-0.14529309
37	0x3baed00f	0.005334861
38	0x3d3f6c38	0.046734065
39	0xbd877b60	-0.06615329
40	0xbc8031df	-0.01564878
41	0x3d16a935	0.036782462
42	0xbc09222f	-0.008369966
43	0xbd0490be	-0.0323646
44	0xbdc4d1c9	-0.09610326
45	0x3cb615f8	0.022227272
46	0x3c9ea6cd	0.019366646
47	0xbda18183	-0.078860305
48	0xbd62cc06	-0.055370353
49	0xbd09657a	-0.03354404
50	0xbd754b01	-0.059885982
51	0x3d5e91c4	0.05433823
52	0xbda22b3e	-0.07918404
53	0x3d878db8	0.066188276
54	0xbba93081	-0.005163253
55	0xbc770b56	-0.015078386
56	0xbdca7c29	-0.09886963
57	0x3d866b91	0.065634854
58	0xbdc7d9d2	-0.09758343
59	0x3de88fd6	0.113555595

embeds.4.weight f4 [1135, 82]
0	0x3c2b7c6d	0.010466677
1	0x3c02502d	0.007953686
2	0x3b08c41d	0.0020868846
3	0xb7a3d5d8	-1.9530693e-05
4	0xbb6b8f0d	-0.003594342
5	0xbbafcbdf	-0.0053648795
6	0xbaecebc0	-0.001807563
7	0x3b944c8a	0.0045257257
8	0xbc8af6f7	-0.016963465
9	0x3c0a0266	0.008423423
10	0xbc7f53d2	-0.015583949
11	0xbb47ea71	-0.0030504728
12	0xbbe71f57	-0.0070532965
13	0xbb59e08b	-0.003324541
14	0xbc83600b	-0.016037008
15	0xbbc1d342	-0.0059150765
16	0xbbd41457	-0.0064721513
17	0xbc28e15e	-0.010307638
18	0x39f5ae7d	0.00046860045
19	0xbb99d648	-0.004694734
20	0x3c3d4dd2	0.011554198
21	0x3bbc40cd	0.0057450295
22	0xba0d6bef	-0.00053948065
23	0xbb84522f	-0.0040381174
24	0xbba22f76	-0.0049495054
25	0xbb2d4886	-0.0026440932
26	0xbc26d35b	-0.010182227
27	0x3bf03db8	0.007331576
28	0xb8e6a2d2	-0.00010997582
29	0x3b3f76a0	0.0029214993
30	0x3c1e7fd5	0.009674032
31	0x3c68e2c6	0.014214223
32	0x3c7f6df0	0.015590176
33	0xbc6091ee	-0.013706667
34	0x3bc4e45e	0.006008669
35	0xbc10170b	-0.008794556
36	0x3c8f910c	0.017525218
37	0x3c0462e6	0.00808022
38	0x3bb684b5	0.005570019
39	0xbc407c8f	-0.011748447
40	0x3c647802	0.013944628
41	0xbc9068d0	-0.017628103
42	0xbc1416da	-0.009038651
43	0xbc9a4151	-0.018829973
44	0xbc14c42b	-0.009079973
45	0xbc32a257	-0.010902963
46	0x3b7b246f	0.0038321277
47	0xbc321220	-0.010868579
48	0x3bf5ceb1	0.007501446
49	0x3be590fe	0.00700581
50	0xbbae1a68	-0.0053132065
51	0xbbcf26c1	-0.0063217585
52	0x3bd0cff5	0.0063724467
53	0x3c69dffa	0.014274592
54	0x3c143a19	0.009047055
55	0x3ba17eee	0.0049284613
56	0x3b4ab6e3	0.0030931763
57	0x3ba1e635	0.004940773
58	0xbc3d55bf	-0.011556088
59	0xbbc75d91	-0.006084152
60	0xbbd572c8	-0.006513927
61	0x3b54c8f0	0.00324684
62	0xbb5809ae	-0.0032964754
63	0x3c153577	0.009106985
64	0x3b414bcb	0.002949464
65	0xbaeb882b	-0.0017969658
66	0x3b91e634	0.004452491
67	0xbbfb2f38	-0.007665541
68	0x3c7319d8	0.014837705
69	0xbb778510	-0.003776852
70	0x3c1ea914	0.009683866
71	0xbaea50cc	-0.0017876863
72	0xbb800f21	-0.0039080535
73	0xbb85a5b4	-0.0040785912
74	0xbc8d7d9b	-0.017271807
75	0x3c5989d5	0.013277491
76	0x3bb5f9ab	0.0055534444
77	0x3c3c80a6	0.011505282
78	0xbb87ae69	-0.0041406644
79	0x3ab9a446	0.0014163337
80	0xbb387fd0	-0.0028152354
81	0xbc2e34c8	-0.010632701
82	0xbceeb6f2	-0.02913997
83	0xbc738e9d	-0.014865545
84	0xbb6b9a16	-0.0035949997
85	0x3bfa27ee	0.0076341545
86	0x3c2236d5	0.009900768
87	0x3b2c93d0	0.002633322
88	0xbc08527d	-0.008320448
89	0xbcd2a794	-0.025714673
90	0x3c94d57a	0.0181682
91	0xbca02b47	-0.019551886
92	0xbb731076	-0.003708867
93	0x3b2fe9af	0.0026842167
94	0xbc9ef221	-0.019402565
95	0x3bb013ea	0.0053734677
96	0xbbaf9b8b	-0.0053591183
97	0xbc4c9d19	-0.012488627
98	0xbc09aba1	-0.008402736
99	0xbbe553d3	-0.006998518
100	0x3c31ddb6	0.010856083
101	0x3bfce86c	0.0077181365
102	0xbb76ba4d	-0.0037647665
103	0x3cf0816e	0.029358592
104	0x3bf84d44	0.00757757
105	0x3b7db749	0.0038713983
106	0x3c11bb94	0.00889482
107	0xbcbb8f21	-0.022895398
108	0x3b9b5fae	0.0047416305
109	0x3c44f893	0.012022155
110	0x3c0cbc6e	0.008589847
111	0x3c29bb4a	0.010359595
112	0x3a089f5a	0.00052117335
113	0xbbd50d99	-0.006501865
114	0xbc4cbdf9	-0.012496465
115	0x3c03cc58	0.008044325
116	0xb9d955d9	-0.00041453427
117	0xbbb523ca	-0.005527948
118	0x3c69d1b3	0.014271188
119	0x3b5b2ca0	0.0033443347
120	0x3bba86ee	0.0056923544
121	0xbc0cf704	-0.008603815
122	0xbce249c7	-0.02762307
123	0x3cb1664c	0.021655224
124	0x3abd4c8e	0.0014442371
125	0x3c5a302c	0.013317149
126	0x3c6088d4	0.013704497
127	0xbbe37136	-0.006940986
128	0x3c31578a	0.010824094
129	0xbcc63e07	-0.024199499
130	0x3bcb2b04	0.006200196
131	0x3cafac25	0.02144439
132	0x3a41015a	0.0007362567
133	0x3b5c247e	0.0033591087
134	0xbcf7f967	-0.030270291
135	0xbbe1bc79	-0.006888923
136	0xb89b68fc	-7.410531e-05
137	0xbc19fe3b	-0.009398992
138	0x3c8b6a2b	0.017018398
139	0xbc33af5b	-0.010967101
140	0xbc0eb2ed	-0.008709651
141	0xbb164a28	-0.0022932384
142	0x3bf28845	0.0074014985
143	0xbb09d695	-0.0021032442
144	0x3b94e74d	0.0045441748
145	0xbb23ee53	-0.0025013878
146	0xbc61c658	-0.013780199
147	0x3a6d2647	0.0009046536
148	0x3c5cb46e	0.013470752
149	0xbc009fb7	-0.007850579
150	0xbbed041e	-0.007233157
151	0x3ca96abd	0.02068078
152	0x3ce21729	0.027598934
153	0x39a22811	0.000309289
154	0x3b9acb57	0.004723947
155	0xbaf4c862	-0.0018675441
156	0xb96c8092	-0.0002255461
157	0x3a7e28da	0.00096954184
158	0xbc3bee09	-0.011470326
159	0x3cac1527	0.02100618
160	0xbc434a7f	-0.011919617
161	0xbbd0cb6c	-0.006371906
162	0xbc8c43c9	-0.017122166
163	0x3ca00c0f	0.019537
164	0xbc17957e	-0.00925195
165	0x3abac0dd	0.0014248152
166	0xbb93a758	-0.004506033
167	0x3b0984ee	0.0020983773
168	0xbc96ddfb	-0.018416395
169	0x3b401aef	0.0029312929
170	0x3bae5508	0.005320195
171	0xbb7e0436	-0.0038759834
172	0x3c8c2056	0.017105263
173	0x3c7e0fb2	0.015506672
174	0x3c2db442	0.010602059
175	0xbbfe2820	-0.007756248
176	0xbc09f362	-0.008419843
177	0x3af3c5ac	0.001859834
178	0x3a4be2ec	0.00077776494
179	0x383bf780	4.4814777e-05
180	0x3b5fab9b	0.0034129384
181	0xba7ec60a	-0.0009718841
182	0xbc5af7a8	-0.01336471
183	0xba1c3fd4	-0.0005960439
184	0xbaeb096b	-0.0017931884
185	0x3c907342	0.017633084
186	0x3c81ebfd	0.015859598
187	0x3ac0c016	0.0014705684
188	0x3b6a82d1	0.003578354
189	0xbb906561	-0.0044066166
190	0x3b4466a6	0.002996841
191	0x39b9896e	0.00035388343
192	0xbb0aa3bd	-0.0021154725
193	0xbbadc34b	-0.0053028218
194	0x3bae5a5a	0.0053208293
195	0xbc62b93f	-0.013838111
196	0x3c5cbdf7	0.0134730255
197	0x3c1ce0c7	0.0095750755
198	0x3badef9a	0.0053081037
199	0x3aad5f4a	0.0013227251
200	0x3c4d52ca	0.0125319455
201	0xb9ba12de	-0.00035490742
202	0x3ba3d7d4	0.005000094
203	0x3bfe4d50	0.007760681
204	0xbbc06295	-0.005871127
205	0x3b1305e0	0.0022433922
206	0x3c063e15	0.008193512
207	0x3b273354	0.0025512772
208	0xbab186d6	-0.0013544213
209	0x3ba05ea8	0.0048940964
210	0x3c83aac5	0.01607264
211	0x3c2ede31	0.010673092
212	0xbb549dbd	-0.0032442652
213	0x3be099cb	0.006854271
214	0xbc8e487a	-0.017368544
215	0x3b98aced	0.0046592862
216	0x3ae7fc9f	0.0017699188
217	0xbc715460	-0.014729589
218	0xbbeb1777	-0.007174428
219	0xbc23f138	-0.0100062415
220	0x3c8086db	0.015689304
221	0x3befdb08	0.0073198117
222	0x3b022f39	0.0019864573
223	0xbbf70b98	-0.007539224
224	0x3b526d58	0.003210863
225	0x3c6b8ed5	0.0143773155
226	0xbb4b3a66	-0.003101015
227	0x3c18315d	0.009289113
228	0x3b33cc1d	0.0027434893
229	0x3ba6dd5d	0.0050923065
230	0x3c73f424	0.014889751
231	0x3c58a788	0.013223536
232	0x3a6b1346	0.00089674105
233	0xbb874729	-0.004128356
234	0xb8a76587	-7.9820915e-05
235	0xbbbec3d6	-0.0058216853
236	0x3c860736	0.01636086
237	0x3ba8f442	0.005156071
238	0xbc9d5150	-0.019203812
239	0x3c947d2b	0.018126091
240	0xbbb57389	-0.0055374545
241	0xbc8a667b	-0.01689457
242	0xbb64981b	-0.00348807
243	0x3b897157	0.0041944194
244	0x3b6c76b5	0.0036081497
245	0x3bb7f3d0	0.0056137815
246	0xbd046872	-0.03232617
247	0xbc470fad	-0.0121497335
248	0xbd175c04	-0.036952987
249	0x3caf26ed	0.021380866
250	0xbc79985b	-0.015234078
251	0xbc8ae202	-0.016953472
252	0x3bddb80e	0.006766326
253	0xbcdc33c2	-0.026880149
254	0x3a4851ea	0.00076416007
255	0xbd104b6e	-0.035228185

embeds.5.weight f4 [3, 3]
0	0xbc2d9e0c	-0.010596763
1	0x3c6ac9aa	0.014330307
2	0xb918de34	-0.00014578627
3	0x3cd06157	0.02543704
4	0x3d236afa	0.039896943
5	0x3d0de7cc	0.034644887
6	0xbddd2511	-0.107980855
7	0xbd31060d	-0.04321866
8	0xbd6d5f81	-0.057952408

embeds.6.weight f4 [3, 3]
0	0xbaea4716	-0.0017873968
1	0xbc379e16	-0.011207124
2	0x3c775642	0.015096249
3	0x3d5146b7	0.05109283
4	0xbcea04f7	-0.02856682
5	0x3d59c061	0.053161982
6	0xbc84db42	-0.016217832
7	0xbbf8d711	-0.0075939973
8	0xbc0e142f	-0.008671804

embeds.7.weight f4 [3, 3]
0	0xbb9c0e35	-0.004762436
1	0x3c0e30af	0.008678599
2	0xbb2811cd	-0.0025645376
3	0x3d57237d	0.05252408
4	0x3da71125	0.08157567
5	0xbbb18eba	-0.0054186257
6	0xbcf417a7	-0.029796435
7	0xbd5e3e59	-0.054258678
8	0x3d355de7	0.044279005

embeds.8.weight f4 [3, 3]
0	0x3bbec186	0.0058214096
1	0x3b546ebf	0.0032414643
2	0xbc495670	-0.012288675
3	0x3da90ebc	0.082547635
4	0xbdc5b0bb	-0.09652849
5	0x3deda638	0.11603969
6	0xbd5a0beb	-0.053234022
7	0x3cdefc04	0.02721978
8	0x3c17e789	0.009271511

embeds.9.weight f4 [3, 3]
0	0xbc352b1c	-0.011057641
1	0x3a37f837	0.0007017883
2	0xbbc7b6a2	-0.0060947696
3	0x3d957e2b	0.07299455
4	0x3d632759	0.055457447
5	0xbd96cd97	-0.07363432
6	0xbd0fa8a8	-0.035072953
7	0xbd4b986d	-0.04970591
8	0x3c9144f8	0.017733082

embeds.10.weight f4 [3, 3]
0	0x3b68d64c	0.0035528122
1	0x3c3cb27c	0.011517163
2	0x3bca32c2	0.0061706016
3	0x3c0ca9e0	0.008585423
4	0xbd676e10	-0.05650145
5	0xbbb24b68	-0.005441118
6	0xbc6f096c	-0.014589649
7	0x3be81ac2	0.007083268
8	0x3d138ce9	0.036023054

embeds.11.weight f4 [3, 3]
0	0x3c6d2750	0.014474705
1	0xbb985f4f	-0.0046500335
2	0xbbcea17c	-0.0063058715
3	0xbd8ea63b	-0.069653
4	0xbd5a0a6f	-0.053232607
5	0xbd4ba8f0	-0.04972166
6	0x3d66d3f6	0.056354485
7	0x3c8717cb	0.016490838
8	0xbb9bdc5c	-0.0047564935

embeds.12.weight f4 [3, 3]
0	0xbc97e154	-0.018540062
1	0x3ba4ad93	0.0050255745
2	0xbc1a6b4a	-0.009424994
3	0xbd83070c	-0.063978285
4	0xbc962197	-0.018326564
5	0x3c82050d	0.015871549
6	0x3c62d5b6	0.013844898
7	0x3d32884b	0.04358701
8	0xbc136ea5	-0.008998548

embeds.13.weight f4 [3, 3]
0	0x3b7d4dd7	0.0038651132
1	0x3bc87df0	0.0061185285
2	0xbc161fa9	-0.009162822
3	0xbd110e2f	-0.035413917
4	0xbcbd2cc0	-0.023092628
5	0xbd232ba8	-0.039836556
6	0x3cc0bb1e	0.023526724
7	0x3d120a03	0.03565408
8	0x3ce43122	0.02785546

bn_cont.weight f4 [8]
0	0x3f458cde	0.7716807
1	0x3f6579ad	0.8963879
2	0x3f4a5f4b	0.79051656
3	0x3f3a29a9	0.7271982
4	0x3f66d768	0.90172434
5	0x3f6782ed	0.9043415
6	0x3f69394b	0.9110305
7	0x3f800000	1.0

bn_cont.bias f4 [8]
0	0xbc52e349	-0.012871572
1	0xbbdc8c04	-0.0067305584
2	0xbc5946e2	-0.013261529
3	0xbc258c83	-0.010104301
4	0x3c977a9d	0.018491084
5	0xbb019f26	-0.0019778698
6	0x3ca290fc	0.019844525
7	0xbcd4d0cf	-0.025978474

bn_cont.running_mean f4 [8]
0	0x40f7c09a	7.742261
1	0x401fb382	2.4953313
2	0x3e27481c	0.16336101
3	0x42712700	60.288086
4	0x43430c80	195.04883
5	0x433080dc	176.50336
6	0x4340018c	192.00604
7	0x437efffc	254.99994

bn_cont.running_var f4 [8]
0	0x48a84c27	344673.22
1	0x45b4bb29	5783.395
2	0x3d4fca9d	0.050730336
3	0x42c47386	98.22563
4	0x4505b29a	2139.1626
5	0x44c4c3b7	1574.1161
6	0x44dca93f	1765.289
7	0x14eb490b	2.3757746e-26

layers.0.2.weight f4 [200]
0	0x3f80ada1	1.0052987
1	0x3f8145e4	1.0099454
2	0x3f7d548b	0.9895713
3	0x3f80294e	1.0012605
4	0x3f809ad6	1.0047252
5	0x3f7f426a	0.99710715
6	0x3f71b84c	0.9442184
7	0x3f7fedef	0.9997243
8	0x3f74a08f	0.9555749
9	0x3f764a76	0.9620737
10	0x3f75f070	0.96070004
11	0x3f785473	0.9700386
12	0x3f7dc640	0.9913063
13	0x3f8618e4	1.0476346
14	0x3f7be181	0.98390967
15	0x3f797b5c	0.97453856
16	0x3f73f110	0.9528971
17	0x3f840c28	1.031621
18	0x3f8065a3	1.0031017
19	0x3f83033f	1.0235366
20	0x3f825d9d	1.0184819
21	0x3f7f3eb2	0.9970504
22	0x3f8312e4	1.024014
23	0x3f7f1d76	0.9965433
24	0x3f824f85	1.0180517
25	0x3f7df579	0.99202687
26	0x3f7b5e33	0.9819061
27	0x3f7e0a5a	0.99234545
28	0x3f7a2b48	0.9772229
29	0x3f7a2f97	0.97728866
30	0x3f74baf3	0.9559776
31	0x3f88a731	1.0676023
32	0x3f7ce6f9	0.98789936
33	0x3f811a58	1.0086164
34	0x3f7eb7cf	0.9949922
35	0x3f7bdeb4	0.98386693
36	0x3f82aa3a	1.0208199
37	0x3f7e40d4	0.9931767
38	0x3f79f2a9	0.97635895
39	0x3f83e6df	1.0304831
40	0x3f84591b	1.0339693
41	0x3f7f251c	0.99666
42	0x3f7b360b	0.9812934
43	0x3f785c33	0.97015685
44	0x3f77c68e	0.96787345
45	0x3f7e590f	0.9935464
46	0x3f752ced	0.95771676
47	0x3f7bdc1a	0.98382723
48	0x3f7eb493	0.99494284
49	0x3f703ff7	0.938476
50	0x3f7896d3	0.9710514
51	0x3f76d5ad	0.96419793
52	0x3f85bd29	1.0448352
53	0x3f7daa55	0.9908803
54	0x3f7a3149	0.97731453
55	0x3f85de49	1.0458461
56	0x3f7ba52d	0.98298913
57	0x3f8491fc	1.0357051
58	0x3f811e2e	1.0087335
59	0x3f7ac9ce	0.9796418
60	0x3f7bb1a4	0.98317933
61	0x3f849625	1.035832
62	0x3f802c9f	1.0013617
63	0x3f7c80d2	0.98634064
64	0x3f8511dc	1.0396075
65	0x3f80e108	1.0068674
66	0x3f7d284c	0.98889613
67	0x3f7f9c0b	0.9984748
68	0x3f7ecc83	0.9953081
69	0x3f71f902	0.9452058
70	0x3f7ed3ab	0.9954173
71	0x3f7f498c	0.997216
72	0x3f7bbbce	0.9833344
73	0x3f7d2e83	0.98899096
74	0x3f71ff00	0.94529724
75	0x3f837891	1.0271169
76	0x3f8227cb	1.0168394
77	0x3f7b30b3	0.98121184
78	0x3f84ed33	1.0384887
79	0x3f85b0fa	1.0444634
80	0x3f80146a	1.000623
81	0x3f77db59	0.9681907
82	0x3f797c2c	0.97455096
83	0x3f84453d	1.033363
84	0x3f7cc844	0.9874308
85	0x3f83316b	1.0249456
86	0x3f781035	0.9689973
87	0x3f7cab61	0.98699003
88	0x3f84559b	1.0338625
89	0x3f75f15c	0.9607141
90	0x3f7dfa3b	0.99209946
91	0x3f800899	1.0002624
92	0x3f7d2e44	0.9889872
93	0x3f7bc926	0.98353803
94	0x3f7ba246	0.98294485
95	0x3f72e59d	0.9488161
96	0x3f789b8b	0.9711234
97	0x3f7f7563	0.9978849
98	0x3f7eebcb	0.9957854
99	0x3f816abc	1.0110698
100	0x3f7c07ac	0.98449206
101	0x3f7cba6d	0.98721963
102	0x3f76b3e5	0.9636825
103	0x3f756384	0.95854974
104	0x3f771c14	0.9652722
105	0x3f7d5439	0.9895664
106	0x3f7e4346	0.993214
107	0x3f7a892e	0.9786557
108	0x3f7e58e4	0.99354386
109	0x3f785b9b	0.9701478
110	0x3f7ca406	0.9868778
111	0x3f78bedd	0.97166234
112	0x3f753656	0.95786035
113	0x3f7cbdf3	0.9872734
114	0x3f83134e	1.0240266
115	0x3f811475	1.0084368
116	0x3f820b23	1.0159649
117	0x3f83931a	1.0279267
118	0x3f7e855e	0.9942225
119	0x3f80e6a0	1.0070381
120	0x3f7f537f	0.9973678
121	0x3f7fb9f1	0.998931
122	0x3f79ead9	0.97623974
123	0x3f801db8	1.000907
124	0x3f80b477	1.0055073
125	0x3f7f8339	0.99809605
126	0x3f751bd5	0.95745593
127	0x3f7861c1	0.9702416
128	0x3f85034c	1.0391631
129	0x3f768cc5	0.9630855
130	0x3f7e89f7	0.9942927
131	0x3f7eec28	0.99579096
132	0x3f7e9524	0.9944632
133	0x3f7bb702	0.9832612
134	0x3f7d2785	0.98888427
135	0x3f79ea9f	0.9762363
136	0x3f846ac0	1.0345078
137	0x3f7c0474	0.98444295
138	0x3f7a9937	0.9789004
139	0x3f8024ee	1.001127
140	0x3f7b3dfa	0.98141444
141	0x3f7dee73	0.9919197
142	0x3f76278f	0.9615411
143	0x3f81efb1	1.0151273
144	0x3f7e9556	0.9944662
145	0x3f7a6d34	0.9782288
146	0x3f809206	1.0044563
147	0x3f7ec528	0.99519587
148	0x3f7f23e8	0.99664164
149	0x3f84947b	1.0357813
150	0x3f805198	1.00249
151	0x3f84aaee	1.0364664
152	0x3f860ee4	1.0473294
153	0x3f7fcdf0	0.9992361
154	0x3f77aa08	0.9674382
155	0x3f7c06ec	0.9844806
156	0x3f8202ee	1.0157144
157	0x3f81b303	1.0132755
158	0x3f819fc9	1.0126888
159	0x3f7ba74a	0.9830214
160	0x3f8294dd	1.020168
161	0x3f815189	1.0103008
162	0x3f800397	1.0001096
163	0x3f7e1162	0.99245274
164	0x3f77cf5e	0.9680079
165	0x3f7b2c3e	0.98114383
166	0x3f89afdf	1.0756797
167	0x3f7e7630	0.9939909
168	0x3f86b7e9	1.0524875
169	0x3f80cc58	1.0062361
170	0x3f840ae6	1.0315826
171	0x3f76a51f	0.96345705
172	0x3f81ad73	1.0131058
173	0x3f83bb06	1.029145
174	0x3f806884	1.0031896
175	0x3f8456e8	1.0339022
176	0x3f813f73	1.0097488
177	0x3f7e60ef	0.9936666
178	0x3f76d8e9	0.9642473
179	0x3f7eb8fd	0.9950102
180	0x3f7f2811	0.9967051
181	0x3f839df2	1.0282576
182	0x3f81a50d	1.0128495
183	0x3f819229	1.012273
184	0x3f865303	1.0494083
185	0x3f82cc40	1.0218582
186	0x3f81690f	1.0110186
187	0x3f7d478f	0.98937315
188	0x3f7fdb0f	0.9994363
189	0x3f77c3da	0.9678322
190	0x3f805000	1.0024414
191	0x3f7b4e0a	0.98165953
192	0x3f879424	1.0592084
193	0x3f7ec71f	0.99522585
194	0x3f7f9fb4	0.9985306
195	0x3f76d117	0.96412796
196	0x3f76fdc9	0.96480995
197	0x3f8229b1	1.0168973
198	0x3f7674d2	0.96272004
199	0x3f7d4212	0.9892894

layers.0.2.bias f4 [200]
0	0x3a42a0f6	0.0007424498
1	0x3d27b1e0	0.04094112
2	0x3deb705f	0.114960425
3	0x3d39b02e	0.045334034
4	0x3d50a7e2	0.050941356
5	0xbdd60e86	-0.10451989
6	0x3da1d1dc	0.079013556
7	0xbc7aaee4	-0.015300486
8	0x3c900496	0.017580312
9	0x3d8ddc71	0.069268115
10	0x3cb92f55	0.022605577
11	0x3b1bc9e5	0.0023771462
12	0x3ae233fc	0.0017257924
13	0x3d615a05	0.05501749
14	0xba1eaf14	-0.00060533104
15	0x3d709736	0.058737956
16	0x3d73e4f8	0.059544533
17	0xbcd53cac	-0.026029907
18	0xbd5271fb	-0.05137823
19	0x3d2923eb	0.04129402
20	0x3db87122	0.09005953
21	0x3e0a6761	0.13515998
22	0x3b948729	0.004532714
23	0x3de33e6d	0.11095891
24	0x3da725f0	0.08161533
25	0xbcff8c41	-0.031194808
26	0x3d8ab88a	0.06773479
27	0x3d8d3b57	0.06896084
28	0x3dabf648	0.08396584
29	0x3d823b78	0.06358999
30	0x3d9084c0	0.0705657
31	0x3a5dc891	0.00084603677
32	0x3e1935a4	0.14961869
33	0x3decf1ce	0.11569558
34	0x3cd012c9	0.025399582
35	0xbd2fd626	-0.042928837
36	0xbcedfdf8	-0.029051766
37	0x3c554204	0.013016228
38	0xbc7adc25	-0.015311276
39	0x3d892053	0.066956185
40	0xbd13d21c	-0.036089048
41	0x3d0b9550	0.034077942
42	0x3df320a0	0.11871457
43	0xbcd34d08	-0.025793567
44	0xbd8bbd77	-0.06823247
45	0x3d0dfe95	0.034666616
46	0xbc54b2dd	-0.012982097
47	0x3d3b77c6	0.04576852
48	0x3e072733	0.13198547
49	0x3d460419	0.04834375
50	0x3c5bf0e2	0.01342413
51	0xbb67038f	-0.0035249924
52	0xbb00845d	-0.0019610145
53	0x3da81689	0.08207423
54	0x3d2d4a54	0.042307213
55	0x3dadb915	0.08482567
56	0x3d95449c	0.07288477
57	0xbd2caa3b	-0.042154532
58	0x3d363369	0.044482622
59	0xbc031569	-0.00800071
60	0x3db6e550	0.08930457
61	0x3d805677	0.06266492
62	0x3db4b9ec	0.08824524
63	0x3df725cc	0.12067756
64	0xbd70f5bb	-0.058828097
65	0x3d97c91f	0.07411408
66	0x3debb8fb	0.115098916
67	0x3dc9d590	0.09855187
68	0x3d88832e	0.066656455
69	0xbd3aa2a3	-0.04556526
70	0x3c3a8d66	0.011386251
71	0x3d28b38c	0.041186854
72	0xbcbf46ad	-0.02334913
73	0x3e108ad9	0.14115466
74	0x3d77d2ee	0.060503893
75	0x3d9f1c10	0.07769024
76	0x3d947cb4	0.07250348
77	0x3d682e4d	0.05668478
78	0x3cdf195c	0.027233772
79	0x3daf1ba6	0.085501954
80	0xbd238fa2	-0.0399319
81	0x3db27068	0.08712846
82	0x3d9ada3e	0.07561158
83	0x3e2008dc	0.1562838
84	0xbcc1d03d	-0.023658866
85	0x3b355c26	0.0027673333
86	0xbd896a8b	-0.067097746
87	0x3da346bd	0.07972477
88	0x3bca408d	0.006172246
89	0x3d755778	0.05989787
90	0x3d82ea36	0.063923284
91	0x3de88e43	0.11355259
92	0x3dcbc7b5	0.099502005
93	0x3ddc039f	0.10742878
94	0x3e114803	0.14187627
95	0x3d4bb331	0.049731437
96	0x3d11ebc6	0.03562524
97	0xbcb0d45f	-0.021585641
98	0x3d25b4ce	0.040455632
99	0xbc03e271	-0.008049593
100	0xbcc231e4	-0.02370543
101	0x3c915f12	0.017745528
102	0xbd22be2e	-0.03973215
103	0x3c38ae25	0.011271988
104	0x3e0f4f46	0.13995084
105	0x3c842516	0.016130965
106	0xbc877396	-0.016534608
107	0x3c9e4a4f	0.019322542
108	0x3d7846d9	0.06061444
109	0x3ca0c038	0.019622907
110	0xbce50048	-0.027954236
111	0x3d1594aa	0.03651873
112	0x3d8b804c	0.0681158
113	0x3ca85f32	0.020553205
114	0x3dc2e7ab	0.095168434
115	0xbc7aae86	-0.015300399
116	0xbca0b31e	-0.01961666
117	0x3d09a05c	0.033600196
118	0x3dc54be5	0.09633616
119	0x3d5215a2	0.051290162
120	0xbda454bc	-0.08023974
121	0x3cc469da	0.023976255
122	0x3d66f0fd	0.056382168
123	0xbd1b8aa5	-0.03797402
124	0x3dafe9bb	0.085895024
125	0x3d7d669f	0.061865445
126	0x3cdc9078	0.026924357
127	0x3da3fa0f	0.08006679
128	0xbd1d0a9a	-0.03834019
129	0x3ccde905	0.025135526
130	0x3d1c5868	0.03817025
131	0x3ddb86aa	0.107190445
132	0x3d2e5429	0.04256073
133	0xbbb4eb7b	-0.0055212355
134	0x3df2b92a	0.118517235
135	0x3d902fa6	0.07040338
136	0x3d8584fe	0.06519507
137	0x3ba25c33	0.0049548387
138	0xbcde1b2e	-0.02711257
139	0xbd2b1ac3	-0.04177357
140	0x3dc5f018	0.09664935
141	0xbc3eedb9	-0.011653357
142	0x3cb4a61c	0.022051863
143	0x3d4c0d81	0.049817566
144	0x3d259467	0.04042473
145	0x3d5e3130	0.054246128
146	0x3cf42858	0.029804394
147	0x3ca65860	0.020305812
148	0x3c61df5e	0.013786165
149	0x3dc3bd02	0.09557535
150	0x3d8633e7	0.06552868
151	0x3de54763	0.111952566
152	0xbd697ca2	-0.057003625
153	0xbc5cb17b	-0.013470049
154	0x3df2e2ae	0.11859642
155	0xbcb1279f	-0.021625338
156	0x3d26a314	0.040682867
157	0x3da98307	0.082769446
158	0x3be8ec5b	0.007108254
159	0x3d3b3dff	0.04571342
160	0x3d7bfb6a	0.061519064
161	0x3da9694b	0.08272036
162	0x3d785d0c	0.06063561
163	0xbce50051	-0.027954252
164	0x3d25b547	0.040456083
165	0x3d4590e8	0.048233896
166	0x3cc5110e	0.024055984
167	0x3d771b46	0.060328744
168	0x3d986b3c	0.07442328
169	0xbd262a74	-0.04056783
170	0xbab33ef0	-0.0013675373
171	0xbd0b1826	-0.033958577
172	0x3e142be2	0.14469865
173	0x3da14172	0.07873811
174	0x3aa6fae4	0.0012739566
175	0x3c3b0e31	0.011416958
176	0x3d671b34	0.056422427
177	0x3d8a1e18	0.06744021
178	0x3c1f13d1	0.009709314
179	0x3dad9fe2	0.08477761
180	0x3d80ebc7	0.06294971
181	0x3c6f9b44	0.014624421
182	0x3d8c40e8	0.068483174
183	0x3da0da17	0.07854097
184	0xbda8da46	-0.08244757
185	0x3d19ded5	0.037566025
186	0x3dd1c2a6	0.10242204
187	0xbca0864d	-0.01959529
188	0x3c92cdf7	0.017920477
189	0x3d24c046	0.04022243
190	0x3c173b6f	0.009230479
191	0x3d1c548a	0.03816656
192	0xbcd3402d	-0.025787437
193	0x3d53806a	0.051636137
194	0xbceeb167	-0.029137326
195	0xbc144830	-0.009050414
196	0x3dbb3902	0.09141733
197	0xbd1b0241	-0.037843946
198	0xbc0b3944	-0.00849754
199	0x3d850f11	0.06497014

layers.0.2.running_mean f4 [200]
0	0x3d2b598d	0.04183345
1	0x3caf023c	0.02136337
2	0x3d50719e	0.050889604
3	0x3c9631b0	0.01833424
4	0x3d080e62	0.03321684
5	0x3d31f5eb	0.043447416
6	0x3c9918aa	0.018688519
7	0x3ca8e116	0.020615142
8	0x3cbda618	0.023150489
9	0x3d0d8de7	0.034559157
10	0x3c8031b2	0.015648697
11	0x3c39be93	0.01133694
12	0x3c41b066	0.011821842
13	0x3ca451be	0.020058509
14	0x3d5b7d16	0.053586088
15	0x3d384685	0.044989128
16	0x3cd92c10	0.026510268
17	0x3c9ef265	0.019402692
18	0x3c0ae3fe	0.008477209
19	0x3d2c40b2	0.042053886
20	0x3d4a687b	0.049416047
21	0x3d39e31b	0.0453826
22	0x3d20cda7	0.039258625
23	0x3d493a2f	0.049127754
24	0x3cd71564	0.026255317
25	0x3c960222	0.018311564
26	0x3c877d36	0.016539197
27	0x3cf859ff	0.030316351
28	0x3d1f55a2	0.038900025
29	0x3d3bbdec	0.04583542
30	0x3cda8d9a	0.026678849
31	0x3bc93adb	0.0061410493
32	0x3d2614cf	0.04054719
33	0x3d494104	0.04913427
34	0x3ca0b68d	0.019618297
35	0x3d05df08	0.032683402
36	0x3d2ed54c	0.042683885
37	0x3d1159cc	0.035486028
38	0x3c81e65e	0.015856918
39	0x3d0aeda6	0.033918045
40	0x3b40b461	0.002940439
41	0x3d82e3e6	0.063911244
42	0x3c7e74b0	0.01553075
43	0x3d382009	0.044952426
44	0x3d245047	0.04011562
45	0x3d831270	0.06400001
46	0x3c7945d6	0.015214404
47	0x3cd9b49a	0.026575375
48	0x3cb01aeb	0.02149721
49	0x3d0c3aae	0.03423565
50	0x3cad4b26	0.021153998
51	0x3d393932	0.04522056
52	0x3d2d15e5	0.04225721
53	0x3d05ca55	0.032663662
54	0x3cbfcffe	0.023414608
55	0x3cc53ab7	0.024075849
56	0x3cf7da8b	0.030255577
57	0x3c51de75	0.012809386
58	0x3d0d0fc4	0.034438863
59	0x3c9ce76e	0.019153323
60	0x3d0a87c9	0.0338209
61	0x3d368f2c	0.044570133
62	0x3c8750c0	0.016517997
63	0x3c8cf0ae	0.017204609
64	0x3d017264	0.031603232
65	0x3d4189b0	0.04725045
66	0x3ca1e6c2	0.019763354
67	0x3cd2c2e1	0.025727691
68	0x3d028964	0.031869307
69	0x3cabe6bf	0.020984052
70	0x3d3495ab	0.044088047
71	0x3c650c93	0.013980049
72	0x3d2e1be2	0.04250706
73	0x3d68838b	0.056766074
74	0x3c11a685	0.008889799
75	0x3cbefced	0.023313964
76	0x3c86c775	0.01645253
77	0x3d1d0158	0.03833136
78	0x3d1fab57	0.03898176
79	0x3b94c462	0.004540012
80	0x3d475bee	0.048671655
81	0x3c946d5b	0.018118551
82	0x3d47d246	0.048784517
83	0x3c810a03	0.015751844
84	0x3d20b981	0.03923941
85	0x3c1c9aec	0.009558421
86	0x3c05f7fd	0.008176801
87	0x3c513b9a	0.012770558
88	0x3cd1ba31	0.025601478
89	0x3cc5b834	0.024135686
90	0x3baf1bb5	0.005343879
91	0x3c1e8678	0.009675615
92	0x3d841e41	0.06451083
93	0x3cffcaaa	0.031224567
94	0x3d51fc47	0.05126598
95	0x3d12751a	0.035756208
96	0x3c6e7c72	0.014556037
97	0x3c8ed46e	0.017435279
98	0x3c26e34e	0.01018603
99	0x3cfdddb0	0.030989498
100	0x3cf197a9	0.029491263
101	0x3cbd5eb0	0.02311644
102	0x3cee597e	0.029095408
103	0x3d313fc8	0.043273717
104	0x3d3497ec	0.044090196
105	0x3d8dc323	0.06921985
106	0x3caff012	0.02147678
107	0x3ce3d55b	0.027811697
108	0x3cb72e69	0.022360997
109	0x3d2df3e3	0.042468917
110	0x3c857a54	0.016293682
111	0x3ca78462	0.020448867
112	0x3ce23991	0.02761534
113	0x3ce762b6	0.028245311
114	0x3d1f561f	0.03890049
115	0x3cdf13da	0.027231146
116	0x3cc0cf4e	0.02353635
117	0x3d20f337	0.039294448
118	0x3d13b3ef	0.03606027
119	0x3d237ddd	0.039914954
120	0x3c403455	0.011731227
121	0x3c269075	0.010166277
122	0x3d24205d	0.040069927
123	0x3ca52cbb	0.02016293
124	0x3d230847	0.039802816
125	0x3d026e4a	0.03184346
126	0x3cdd81ae	0.027039375
127	0x3cfe8e8a	0.031073827
128	0x3cdf6f8b	0.027274868
129	0x3d2a8a3a	0.04163573
130	0x3d6009b9	0.054696772
131	0x3c845f96	0.01615886
132	0x3d07498b	0.03302912
133	0x3bc80edf	0.0061052884
134	0x3c6b80ed	0.014374
135	0x3cd6439d	0.026155287
136	0x3bc570d0	0.006025411
137	0x3cf6fd97	0.030150218
138	0x3d938c6d	0.072045185
139	0x3d833a33	0.06407585
140	0x3d3419df	0.043969985
141	0x3d3940ad	0.045227695
142	0x3d317e6e	0.043333463
143	0x3c835f91	0.01603678
144	0x3cbf3ad7	0.023343487
145	0x3d37c4e3	0.0448655
146	0x3d1bcd6a	0.038037695
147	0x3c9fa6fb	0.019488802
148	0x3ced6bfc	0.028982155
149	0x3cb7b12a	0.022423346
150	0x3c4f5481	0.012654425
151	0x3d8675ba	0.06565423
152	0x3d0c9623	0.03432287
153	0x3c8c4850	0.017124325
154	0x3ce67fa7	0.028137041
155	0x3c6bee5e	0.014400093
156	0x3c3c8c0b	0.011507998
157	0x3cf167d0	0.029468447
158	0x3d1e0d33	0.038586807
159	0x3c74e906	0.014948135
160	0x3d018528	0.03162113
161	0x3d08078b	0.03321032
162	0x3ce9f577	0.02855943
163	0x3cef1eac	0.02918943
164	0x3c8351c1	0.016030194
165	0x3c981e1d	0.018569047
166	0x3b6710a2	0.0035257717
167	0x3d0f1e5b	0.03494106
168	0x3d128f35	0.035781104
169	0x3d4dc473	0.050236177
170	0x3c3ba85b	0.011453713
171	0x3cd52d08	0.02602245
172	0x3d035cce	0.032070927
173	0x3d376dd6	0.044782482
174	0x3c871011	0.016487153
175	0x3c8cca44	0.017186292
176	0x3c571428	0.013127364
177	0x3d04a643	0.032385122
178	0x3c9976f0	0.018733472
179	0x3d253e50	0.04034263
180	0x3c80e429	0.015733795
181	0x3d15aad7	0.03653988
182	0x3d26dd73	0.040738534
183	0x3c470615	0.012147446
184	0x3cb3e0fe	0.02195787
185	0x3cb2d247	0.021828784
186	0x3cb272f0	0.021783322
187	0x3cb809ce	0.022465613
188	0x3ba80014	0.0051269624
189	0x3d3b3f5b	0.045714717
190	0x3bd593d9	0.006517869
191	0x3cc29c03	0.023756033
192	0x3c6c7cea	0.014434079
193	0x3d44c522	0.048039563
194	0x3c6903b1	0.0142220715
195	0x3d3d36d3	0.046194863
196	0x3ca082ab	0.019593557
197	0x3c401a20	0.011724979
198	0x3d42a132	0.04751701
199	0x3d33fbd2	0.043941326

layers.0.2.running_var f4 [200]
0	0x3b297a46	0.0025860234
1	0x39ebccaf	0.00044975194
2	0x3b6de3f5	0.0036299203
3	0x3ba74cbe	0.005105584
4	0x3ae8265d	0.0017711628
5	0x3ad14494	0.0015965872
6	0x3b811493	0.00393922
7	0x3b4eac53	0.0031535819
8	0x3bc4501a	0.005990994
9	0x3bae1cf5	0.0053135105
10	0x3b5fccaa	0.003414909
11	0x3a32a621	0.0006814916
12	0x3a8d3ad1	0.0010774975
13	0x3a0fd9d7	0.0005487478
14	0x3ac59413	0.0015074037
15	0x3b40e298	0.0029431935
16	0x3bd71863	0.0065641864
17	0x3ace1ac5	0.0015724531
18	0x3a26175b	0.00063358777
19	0x3a894c92	0.001047509
20	0x3b3cc001	0.0028800967
21	0x3b385643	0.0028127588
22	0x3b41e6be	0.0029586996
23	0x3b688a6e	0.00354829
24	0x3b51e18b	0.0032025303
25	0x3a9b3670	0.0011841785
26	0x3b255888	0.002522977
27	0x3a840b0f	0.0010074096
28	0x3c9e7b01	0.019345762
29	0x3b634e22	0.0034684022
30	0x3bca6b3f	0.0061773355
31	0x394a2ef6	0.00019281716
32	0x3b547b7d	0.0032422238
33	0x3b3d9136	0.0028925664
34	0x3b3611a2	0.0027781506
35	0x3b5da75b	0.0033821675
36	0x3ac6d3f1	0.0015169365
37	0x3b2c0db4	0.0026253285
38	0x3a9328f7	0.0011227418
39	0x3a496ccf	0.0007683755
40	0x38b683ef	8.703011e-05
41	0x3b514adf	0.0031935496
42	0x3bbe20a8	0.005802233
43	0x3abc52c4	0.0014367928
44	0x3b439d2a	0.0029848316
45	0x3b40cd69	0.002941931
46	0x3b2117ae	0.0024580765
47	0x3b1c232b	0.0023824673
48	0x3ac42909	0.0014965843
49	0x3c1acfd3	0.009448963
50	0x3c021266	0.007938957
51	0x3ba0ea28	0.004910726
52	0x3a87017c	0.0010300125
53	0x3c230ecc	0.009952258
54	0x3c3ece7d	0.01164591
55	0x3a157636	0.0005701514
56	0x3b43900c	0.0029840497
57	0x3a8d5936	0.0010784033
58	0x3acbdc66	0.0015553355
59	0x3b717b8d	0.0036847324
60	0x3c18a211	0.009315983
61	0x3a5f699f	0.00085225137
62	0x3b837b36	0.0040124906
63	0x3b50f9e1	0.003188722
64	0x3a5daa74	0.00084558805
65	0x3abbc0bd	0.0014324408
66	0x3bea1ce4	0.0071445573
67	0x3b36491b	0.002781457
68	0x3aa8e4f5	0.0012885617
69	0x3ab802d1	0.0014038925
70	0x3ba21f13	0.004947552
71	0x3a9f1894	0.0012138062
72	0x3b625012	0.003453259
73	0x3b24fde7	0.0025175752
74	0x3a1e4063	0.0006036816
75	0x3af0497a	0.0018332445
76	0x39fd6707	0.00048332682
77	0x3b277642	0.0025552665
78	0x3a87b6ec	0.0010354198
79	0x39fb1bab	0.00047895065
80	0x3b16780b	0.0022959735
81	0x3b29719b	0.0025855068
82	0x3b106eef	0.0022038778
83	0x3a0d299d	0.0005384924
84	0x3a8a7e8d	0.001056628
85	0x3ad9e37f	0.0016623585
86	0x39d8089f	0.00041205154
87	0x3a401302	0.0007327051
88	0x3aa58127	0.0012626991
89	0x3bd06c88	0.006360594
90	0x39862d4b	0.00025592218
91	0x3ac614e2	0.0015112425
92	0x3b9cdecb	0.004787301
93	0x3b6a7b8e	0.003577921
94	0x3b786242	0.0037900363
95	0x3c6837fc	0.014173504
96	0x3b237c49	0.0024945906
97	0x3b15e43a	0.002287163
98	0x3abaa5ce	0.0014240087
99	0x3b32532e	0.0027210223
100	0x3bcf2c67	0.006322432
101	0x3ba2ef93	0.004972407
102	0x3b25f1f6	0.0025321222
103	0x3c3d876e	0.0115679335
104	0x3c2a00d2	0.010376172
105	0x3b7c6f83	0.0038518615
106	0x3b2817ad	0.0025648877
107	0x3c2672c4	0.010159198
108	0x3b39e841	0.0028367194
109	0x3acd78d8	0.0015676273
110	0x3b3c381f	0.0028719974
111	0x3adc4ee2	0.0016808177
112	0x3c00896b	0.007845263
113	0x3baf2ea1	0.005346135
114	0x3b3d8a58	0.002892157
115	0x3b81fb6c	0.0039667394
116	0x3a15937e	0.0005705877
117	0x3ab09e95	0.0013474996
118	0x3a6cd7f2	0.0009034864
119	0x3aaf19a0	0.0013359077
120	0x3aafc422	0.0013409893
121	0x3a9374eb	0.0011250054
122	0x3b777ebd	0.003776475
123	0x3a59ba29	0.0008305633
124	0x3ae3ab7b	0.0017369831
125	0x3b39a51d	0.0028327175
126	0x3bc90a55	0.006135265
127	0x3ba8d423	0.005152242
128	0x3a2a30b9	0.00064922456
129	0x3b96ed1e	0.0046059033
130	0x3b37823d	0.0028001212
131	0x3b43f926	0.0029903143
132	0x3b0d25cd	0.0021537424
133	0x39946713	0.00028305556
134	0x3accdcaa	0.0015629728
135	0x3bbc23a5	0.005741554
136	0x398625f0	0.00025586737
137	0x3b25ce88	0.0025300104
138	0x3bc6883a	0.00605872
139	0x3b871a13	0.0041229813
140	0x3bf2db8e	0.007411427
141	0x3b60bf4d	0.0034293712
142	0x3baee306	0.005337122
143	0x3a43896c	0.0007459137
144	0x3b001e21	0.0019549208
145	0x3b8afeb0	0.004241787
146	0x3ae5b585	0.001752541
147	0x3aead957	0.0017917556
148	0x3a8f4614	0.0010930919
149	0x3aaad246	0.0013032637
150	0x3b9fcd26	0.0048767505
151	0x3aeefce3	0.0018233325
152	0x3a705e58	0.0009169332
153	0x3b7a8b12	0.0038229865
154	0x3b6a4e90	0.0035752393
155	0x3a3ffe1f	0.0007323939
156	0x3a4f5b6c	0.0007910046
157	0x3a4ca98a	0.0007807246
158	0x3b20a361	0.0024511444
159	0x3b47d54c	0.0030492125
160	0x3abbb612	0.0014321229
161	0x3a8a04c6	0.0010529987
162	0x3b8a8414	0.0042271707
163	0x3b50117c	0.0031748703
164	0x3b3a5fc4	0.0028438428
165	0x3b0e23d3	0.0021688833
166	0x396c22f3	0.00022519733
167	0x3b2046c8	0.0024456251
168	0x3a82e251	0.000998566
169	0x3aa4b45b	0.0012565957
170	0x39f8969d	0.00047414462
171	0x3b93c44c	0.0045094844
172	0x3b218472	0.0024645594
173	0x3ad3af56	0.0016150277
174	0x3a972584	0.0011531566
175	0x3a118bf6	0.0005552167
176	0x3b026639	0.0019897355
177	0x3b280b06	0.0025641336
178	0x3bf0d8bd	0.007350056
179	0x3b07ccd3	0.002072145
180	0x3b1f8034	0.002433789
181	0x3a71b5f5	0.0009220534
182	0x3a645800	0.0008710623
183	0x3ac894b2	0.0015303104
184	0x3a161511	0.0005725185
185	0x3a25b5fb	0.00063213677
186	0x3a9732a5	0.0011535479
187	0x3b05f42c	0.0020439727
188	0x3a9e3781	0.0012070985
189	0x3bba8e71	0.00569325
190	0x3a40953d	0.0007346457
191	0x3a2c9d18	0.0006584688
192	0x39c7cdc5	0.00038109548
193	0x3ae239b0	0.0017259624
194	0x3af6525a	0.0018792853
195	0x3c5ca83a	0.013467843
196	0x3b731d9c	0.0037096506
197	0x3a15a86f	0.00057089975
198	0x3b43bd08	0.002986731
199	0x3bf0101e	0.00732614

layers.1.2.weight f4 [100]
0	0x3fa8e018	1.3193388
1	0x3fa3c5f4	1.2794785
2	0x3fab2598	1.3370848
3	0x3fa79746	1.309304
4	0x3f9ad305	1.2095648
5	0x3faa029d	1.3282048
6	0x3fa659e2	1.299618
7	0x3fa1224c	1.2588592
8	0x3f9851d1	1.1899968
9	0x3fa5e980	1.2961884
10	0x3f9c427b	1.2207788
11	0x3fad7272	1.3550551
12	0x3fa65f81	1.2997895
13	0x3fad5bf9	1.3543693
14	0x3fa3dab7	1.2801121
15	0x3fa2f39a	1.2730591
16	0x3f9c135a	1.2193406
17	0x3fa2005b	1.2656358
18	0x3fae495c	1.3616138
19	0x3fa76d83	1.3080295
20	0x3face21a	1.3506501
21	0x3fa7ee67	1.311963
22	0x3face314	1.3506799
23	0x3fa41cb7	1.2821263
24	0x3fa5fba3	1.2967418
25	0x3f8c1298	1.0943174
26	0x3fa474cf	1.2848147
27	0x3fb03853	1.3767189
28	0x3fa7e926	1.3118026
29	0x3fb1e2cc	1.3897338
30	0x3fa4f60a	1.2887585
31	0x3fabfb6d	1.3436104
32	0x3fadd324	1.358006
33	0x3f951b60	1.1648979
34	0x3fab9bb3	1.3406891
35	0x3fa350ec	1.275907
36	0x3f906cd9	1.1283218
37	0x3fac4179	1.3457481
38	0x3fa56ec5	1.2924429
39	0x3faa56bb	1.3307718
40	0x3faba772	1.3410475
41	0x3fa96bcf	1.3236026
42	0x3fac8a48	1.34797
43	0x3faa8786	1.3322608
44	0x3fa4c590	1.2872791
45	0x3fa4adb3	1.2865509
46	0x3fa6c682	1.302933
47	0x3fa8504f	1.3149508
48	0x3fa5655f	1.2921561
49	0x3fad5096	1.3540218
50	0x3fa04df2	1.2523787
51	0x3f8c4b61	1.0960504
52	0x3fb169cd	1.3860413
53	0x3fa13954	1.259562
54	0x3faf2412	1.3682883
55	0x3fa3dd6e	1.280195
56	0x3fb20083	1.3906406
57	0x3fa9de38	1.3270941
58	0x3fad7e02	1.355408
59	0x3fa30d82	1.2738497
60	0x3fad4e30	1.3539486
61	0x3fa5e5b5	1.2960726
62	0x3fab4888	1.338151
63	0x3fa7c1dd	1.3106037
64	0x3fa76e4e	1.3080537
65	0x3fab925d	1.3404042
66	0x3f98ae86	1.192826
67	0x3fae1da8	1.36028
68	0x3f913e07	1.1347054
69	0x3f9e2219	1.2354156
70	0x3fa7aa99	1.3098937
71	0x3fa7666d	1.3078133
72	0x3fa7ba3d	1.310371
73	0x3fa41067	1.2817506
74	0x3faae87a	1.3352196
75	0x3fa13c48	1.2596521
76	0x3fa6bdbe	1.3026655
77	0x3fa56b25	1.2923323
78	0x3f87a190	1.059618
79	0x3f955be7	1.1668671
80	0x3fa6713e	1.3003309
81	0x3fad23c5	1.3526541
82	0x3faa0fa2	1.3286021
83	0x3fa9b8da	1.3259537
84	0x3fa202bb	1.2657083
85	0x3f9f0a6c	1.2425056
86	0x3fa3e29c	1.2803531
87	0x3f9b6547	1.2140282
88	0x3fb0e7ce	1.3820741
89	0x3fa861c1	1.3154832
90	0x3f9da53c	1.231605
91	0x3facca58	1.349925
92	0x3fa84bc6	1.3148124
93	0x3faba331	1.3409177
94	0x3fa4df81	1.2880708
95	0x3fa54ade	1.2913473
96	0x3fac253c	1.3448863
97	0x3fa5ef79	1.2963706
98	0x3fb178e4	1.3865018
99	0x3fa86e8e	1.3158739

layers.1.2.bias f4 [100]
0	0x3dacb15c	0.08432266
1	0xbeab792c	-0.33490884
2	0xbec06653	-0.37578067
3	0x3ec1e180	0.37867355
4	0xbebee3c7	-0.37283155
5	0x3ea21464	0.31656182
6	0x3dcca651	0.0999266
7	0xbe6c4b45	-0.23075588
8	0xbe710991	-0.23538806
9	0xbedba00d	-0.42895547
10	0xbe95a9b1	-0.29231027
11	0x3ed138ec	0.4086374
12	0x3eb5a408	0.35476708
13	0xbe6b8a2c	-0.23001927
14	0xbec9eaf8	-0.3943708
15	0xbeca288c	-0.3948406
16	0xbebd7ee6	-0.37010878
17	0xbecaeac4	-0.39632237
18	0xbd84927f	-0.064732544
19	0x3eca5ece	0.39525455
20	0x3dfdb364	0.12387732
21	0xbe99cf42	-0.30040938
22	0x3ebfca56	0.37459058
23	0xbeab48b8	-0.33453918
24	0xbebeca85	-0.37263885
25	0xbea85f8b	-0.32885394
26	0xbed03ada	-0.406699
27	0x3ebcc5b7	0.36869594
28	0xbecf4d9e	-0.40488905
29	0x3ea2efe5	0.3182365
30	0xbebad5fd	-0.36491385
31	0xbee9d9b2	-0.456739
32	0x3da8427e	0.082158074
33	0x3ec8be80	0.3920784
34	0x3e2a0d1b	0.16606562
35	0xbe75f69a	-0.24019852
36	0xbec09d69	-0.37620094
37	0x3eb4ae53	0.3528925
38	0xbe961f05	-0.2932054
39	0x3deaf000	0.114715576
40	0xbeaaac2f	-0.3333449
41	0x3eb5ec09	0.35531643
42	0xbe7c3cfc	-0.24632639
43	0x3e93a5e9	0.28837517
44	0x3ea5affb	0.32360825
45	0x3cb762e7	0.022386028
46	0xbebbd66d	-0.3668703
47	0x3eccac49	0.39975193
48	0xbe8e29a5	-0.27766147
49	0xbeab78a9	-0.33490494
50	0xbea51979	-0.32245997
51	0xbea00094	-0.3125044
52	0x3ee85647	0.45378324
53	0x3d0f25e3	0.03494824
54	0xbd96b6bf	-0.07359075
55	0xbeb25e6b	-0.3483766
56	0x3ec65fe8	0.38745046
57	0xbe953284	-0.29140103
58	0x3ea0fb26	0.3144161
59	0xbebea5f9	-0.37236002
60	0x3e2559c9	0.16147532
61	0xbe991ab2	-0.2990318
62	0xbeda8f4a	-0.42687446
63	0x3ea66065	0.32495418
64	0x3e8ceada	0.27522928
65	0x3e10fbee	0.14158604
66	0xbebff9db	-0.37495312
67	0xbede10d7	-0.43372223
68	0xbea6a58f	-0.32548186
69	0xbeb44a3f	-0.35212895
70	0xbe0d657d	-0.13808246
71	0x3e4f7d6e	0.20262691
72	0x3d34551c	0.04402648
73	0x3e5fafbc	0.21844381
74	0xbe8feb84	-0.28109372
75	0x3e187b72	0.1489084
76	0xbe86e1f1	-0.26344255
77	0xbec80524	-0.39066422
78	0xbed198aa	-0.40936786
79	0x3e718d9b	0.23589174
80	0xbe14a5e6	-0.1451641
81	0xbe861624	-0.26188767
82	0xbe173943	-0.14767937
83	0xbe8d9ada	-0.27657205
84	0xbebe6351	-0.37185147
85	0xbe8b5878	-0.27215934
86	0xbe993ff8	-0.29931617
87	0xbeba36c6	-0.36369914
88	0xbd88bf4d	-0.06677113
89	0xbe84d795	-0.25945726
90	0xbeba9763	-0.36443624
91	0x3e71cf61	0.23614265
92	0xbe9d3100	-0.30701447
93	0xbeadd74b	-0.33953318
94	0x3e75f6cf	0.24019931
95	0x3e91c460	0.28470135
96	0xbed4e81c	-0.41583335
97	0xbea1b55a	-0.31583673
98	0x3e5f1b08	0.21787655
99	0xbecab06a	-0.39587718

layers.1.2.running_mean f4 [100]
0	0x3e9c8024	0.30566514
1	0x3e419457	0.18904243
2	0x3e172908	0.14761746
3	0x3e93a13c	0.2883395
4	0x3e5c81aa	0.21533838
5	0x3e97909e	0.29602522
6	0x3e6ce8b2	0.23135641
7	0x3e89964a	0.26872474
8	0x3e9a3514	0.3011862
9	0x3e4d308f	0.20038055
10	0x3e873d54	0.26413977
11	0x3e56c8e2	0.20975068
12	0x3e9aeb06	0.30257434
13	0x3e745b84	0.23863035
14	0x3e4efd77	0.20213877
15	0x3eaac810	0.3335576
16	0x3e2dfabb	0.16990177
17	0x3eb12ea4	0.34605896
18	0x3e2f4aaf	0.17118333
19	0x3e8363a7	0.25661966
20	0x3e46e1e2	0.19422105
21	0x3e4a9ac2	0.19785598
22	0x3e3a6092	0.18200901
23	0x3e760672	0.24025896
24	0x3e435e2e	0.19078895
25	0x3ebac442	0.36477858
26	0x3e311047	0.17291366
27	0x3e9dd88e	0.3082928
28	0x3e659971	0.22421815
29	0x3e789767	0.24276505
30	0x3e4194f2	0.18904474
31	0x3ea11d5d	0.31467715
32	0x3e6c247a	0.2306079
33	0x3ea10052	0.31445557
34	0x3eab2349	0.33425358
35	0x3e71876b	0.23586814
36	0x3e9ac78d	0.3023037
37	0x3e967e9a	0.29393464
38	0x3e3ecbb2	0.18632391
39	0x3e7f83d9	0.2495264
40	0x3e4ef732	0.20211485
41	0x3e893189	0.26795605
42	0x3eaef8ec	0.34174287
43	0x3e8139f1	0.25239518
44	0x3ea9a353	0.3313242
45	0x3e2837ca	0.16427532
46	0x3e3d1208	0.1846391
47	0x3ed6213c	0.4182223
48	0x3e81db05	0.2536241
49	0x3e7342f3	0.23756008
50	0x3e576846	0.21035871
51	0x3e6aa470	0.2291429
52	0x3e96c41a	0.2944649
53	0x3e6738e2	0.22580293
54	0x3e72e18f	0.23718856
55	0x3e7673ff	0.24067686
56	0x3e26181e	0.16220137
57	0x3ea15c01	0.31515506
58	0x3ea79805	0.3273317
59	0x3e2ade90	0.16686463
60	0x3e835774	0.2565266
61	0x3e28e4b8	0.164935
62	0x3e93a403	0.2883607
63	0x3e7cd542	0.24690726
64	0x3e854193	0.26026592
65	0x3e8541b5	0.26026693
66	0x3e33235f	0.17493962
67	0x3e3cf978	0.1845454
68	0x3e939f2a	0.2883237
69	0x3e3f4418	0.1867832
70	0x3e9eb2a4	0.30995667
71	0x3e7e7102	0.24847797
72	0x3e86c1a3	0.26319608
73	0x3eaf66a4	0.34257996
74	0x3e5a610c	0.21326083
75	0x3ea4a7da	0.3215931
76	0x3e8d45bc	0.27592266
77	0x3e98689d	0.29767314
78	0x3eb870d0	0.3602357
79	0x3e8927ec	0.2678827
80	0x3e824197	0.25440666
81	0x3e8912e2	0.2677222
82	0x3e429c81	0.19005014
83	0x3e5ef1d7	0.21771942
84	0x3e9dc44a	0.3081382
85	0x3e905bdd	0.28195086
86	0x3e71d17b	0.23615067
87	0x3e90b3c8	0.28262162
88	0x3e686560	0.22694921
89	0x3e703155	0.23456319
90	0x3e30d936	0.1727036
91	0x3e89a332	0.2688232
92	0x3e882f92	0.26598793
93	0x3e80a6c9	0.25127247
94	0x3ecd9ec5	0.40160194
95	0x3eb60189	0.35548046
96	0x3ea0b09c	0.31384742
97	0x3e936f30	0.28795767
98	0x3e6460fa	0.22302619
99	0x3e8b37e4	0.2719108
